03Training/network.onnx (onnx, 14669 bytes, 6 tensors)

fc1_weight f4 [32, 10]
000000 c7 92 98 be 36 a8 02 be 37 86 a1 be a9 c4 bc bb
       -0.29799482 -0.1275948 -0.3154771 -0.0057607484
000010 2b 5c 4f 3d 69 e8 53 3e dc aa 86 be 07 ad 2b be
       0.050625008 0.20694126 -0.2630223 -0.16765223
000020 9a 17 40 3e 51 05 68 3e 54 24 e5 3c 5a 02 78 3d
       0.18759003 0.22658278 0.027971424 0.060549118
000030 1b 51 9c be de eb 81 bd ac c1 e5 bd 43 8d 92 3d
       -0.3053063 -0.06343816 -0.112185806 0.0715585
000040 9d ed 1c 3d 77 1d 3c be 26 f8 0c bd b4 a4 07 3e
       0.038312543 -0.18370615 -0.03441634 0.13246423
000050 9b c9 75 3e 16 e7 e2 3d 94 00 6f bd 80 88 90 3e
       0.24002688 0.110792324 -0.05835016 0.2822914
000060 c7 93 16 be da 32 9a 3d bb d4 8c 3d 57 f4 57 3e
       -0.1470481 0.075292304 0.068765126 0.21089302
000070 43 f5 92 bd f9 ae 9d be 8a 6d e2 bd ad 5e 3f bd
       -0.07175686 -0.30797556 -0.11056049 -0.04672115
000080 85 8b 00 3e a6 df 2d be cc 3d ed 3d a4 ff 93 be
       0.12553222 -0.16979846 0.115840524 -0.28905976
000090 40 b8 8b 3e e8 db f0 bd 57 b3 c4 bd c3 6b 0a be
       0.2728901 -0.11760694 -0.09604519 -0.1351767
0000a0 1f 60 f3 3d 88 fa 80 be bb 74 8a 3e 07 d1 90 be
       0.11883568 -0.2519114 0.27042183 -0.28284475
0000b0 e0 1e b5 3d 38 32 7b bd 24 a0 f0 3c ef 2a 92 be
       0.088437796 -0.06132719 0.029373236 -0.2854838
0000c0 74 b3 3d 3d 48 d1 9a bd 48 be 4e be a5 b9 0c be
       0.046313718 -0.075594485 -0.20189774 -0.13742693
0000d0 42 ab 84 3d 36 40 0a ba d3 09 db bd 4b d6 97 3e
       0.06477977 -0.00052738504 -0.10695233 0.2965568
0000e0 bb 30 43 3d d9 38 62 bd 3f a5 1f 3e 8a 70 21 be
       0.047653895 -0.055229995 0.1559038 -0.15765586
0000f0 bf 68 57 bd 9c 51 85 3e 3e e8 a3 3d cf 55 ea bd
       -0.052590128 0.26038826 0.08003281 -0.11442148
000100 14 b1 53 3e ff 05 6c 3d 12 b6 9e bd 5c 9b 01 3e
       0.20673019 0.057622906 -0.07749571 0.12656921
000110 7d be 2e bd e4 3b 62 bd 97 25 0a be 54 d6 55 3e
       -0.042662133 -0.055232897 -0.13490902 0.20882541
000120 5a 31 88 be 39 e0 fe bd 0c ac 9b be 86 fe 59 be
       -0.26600152 -0.12445111 -0.304047 -0.21288499
000130 80 6a 8c bd 74 bf 8f be 0f 13 f9 3d b7 f2 16 be
       -0.06856251 -0.28075755 0.12161838 -0.14741026
000140 78 43 40 be 5f 25 c4 3d 81 c1 28 be d8 8a 63 3e
       -0.18775737 0.095774405 -0.16480066 0.22220933
000150 17 58 98 3e 77 ff ed bd f9 96 b0 bd 83 ca 02 3e
       0.29754707 -0.11620992 -0.08622546 0.12772565
000160 f6 e4 38 be 32 27 81 3d bc d3 92 be ce 61 b6 bd
       -0.18056092 0.06306304 -0.28677166 -0.089053735
000170 76 89 82 3e 37 59 3c be 63 02 9d be aa 8b 8b 3e
       0.254955 -0.18393408 -0.30665883 0.27254993
000180 27 8d d4 bd 4f 1b 48 3e c7 79 3e 3e 98 9d 5a 3d
       -0.10378485 0.19541667 0.18601142 0.05337295
000190 7a c4 cb 3d b6 50 7a bd ef a0 a0 be b1 83 81 3d
       0.09949584 -0.06111213 -0.31372783 0.06323946
0001a0 2b c0 81 3c 06 05 7a be 71 aa 4f be 99 5e d2 bd
       0.015838703 -0.24415979 -0.20279862 -0.10271949
0001b0 f7 e6 36 be 94 32 75 bc 5e 77 26 bd 3f ae 7f bd
       -0.17861544 -0.014965672 -0.04064118 -0.062422033
0001c0 b5 ff 97 be 5a 03 c3 bc 94 19 06 be d1 26 6e 3c
       -0.29687276 -0.02380531 -0.13095695 0.014535622
0001d0 a6 0f 80 3b 2a de 3d be 80 2c 36 3e c9 83 d7 bd
       0.0039081154 -0.1854178 0.17790413 -0.10523183
0001e0 bb 5b 6c 3e a6 f2 f5 3d fb ee 4e 3e e5 f1 4b be
       0.23081867 0.12009172 0.20208351 -0.19916494
0001f0 11 14 83 be 16 33 52 be 73 d2 3c 3e 7b 67 83 3d
       -0.25601247 -0.205273 0.18439655 0.06416222
000200 31 fc 51 bb c9 9b 2b bc a1 ce fa 3d 0f 29 66 bd
       -0.0032041187 -0.010474154 0.122464426 -0.0561915
000210 55 34 80 be 41 51 08 be ec 10 fc 3d aa a6 83 3e
       -0.25039926 -0.13312246 0.12307915 0.25713092
000220 e1 55 58 be ce 98 34 be 80 23 10 3e 7c bb 46 be
       -0.2112651 -0.17636415 0.14076042 -0.19407457
000230 b7 b5 93 3e d1 9c 22 3d 54 42 7b be 99 73 3c be
       0.28849575 0.039700333 -0.24537021 -0.18403472
000240 46 f3 05 3e eb 06 86 be d8 02 97 bd 05 24 56 be
       0.13081083 -0.26177153 -0.07373589 -0.20912178
000250 d0 97 00 be 4f 2f 96 be 69 6d 52 be e4 f5 18 3d
       -0.12557912 -0.2933297 -0.20549549 0.037343875
000260 5c 6e 9c be 13 2a e1 3c 47 90 29 3e 33 8f 54 be
       -0.30552948 0.027485883 0.16558944 -0.20757751
000270 05 fc 27 be 7b 3e 69 3e 1d 56 db bd 5c c8 2c 3d
       -0.16404732 0.2277774 -0.10709784 0.042183265
000280 4f 0d 2f be 42 53 84 3e ef bb 3f 3e 41 8b 77 be
       -0.1709492 0.2584477 0.18724035 -0.24174215
000290 a8 80 29 3d b6 4e 39 3d ea 7e 2f 3d dc 5c bc 3c
       0.04138246 0.04524108 0.042845644 0.022993498
0002a0 69 98 f9 bd 15 a4 6b bc 39 a6 25 3e a5 6d 43 3e
       -0.12187273 -0.014382382 0.1617669 0.19084795
0002b0 ab 21 66 be cb 40 6c 3e a6 07 17 be 15 50 9b 3e
       -0.22473781 0.23071592 -0.14749011 0.30334535
0002c0 5d 43 95 3d 0d c2 88 bd af 64 38 be 62 21 09 be
       0.07288239 -0.06677637 -0.18007158 -0.13391641
0002d0 36 a7 dc 3c 34 6f 60 be 41 5d 8d 3e 70 c8 9a 3e
       0.026935201 -0.2191742 0.2761021 0.30231047
0002e0 ad 7d 7a be e8 5f d3 bd ad b3 27 3e 4b 12 33 3e
       -0.24462004 -0.10321027 0.16377135 0.17487447
0002f0 04 22 8e bd b7 26 3f be 30 2b 8d 3e 0d 37 15 3d
       -0.06940082 -0.18667112 0.27572012 0.036429454
000300 34 bf 48 bd 51 df 9e 3d f6 70 44 be 1c 33 27 be
       -0.04901047 0.07757438 -0.19183716 -0.1632809
000310 8f 88 0d 3e 13 de 9e 3d 04 a5 65 3e 72 b0 83 3e
       0.13821624 0.07757201 0.2242623 0.25720555
000320 a6 cb 6e bd d9 b5 27 bd 8b 2d 77 be ff e2 98 bd
       -0.058299683 -0.040944908 -0.24138467 -0.07465171
000330 00 0e d9 3d 07 5d 64 be 2b 58 91 3d 2b 70 12 3b
       0.105983734 -0.22301112 0.07096895 0.002234469
000340 6b 6d 3d 3e 62 75 d8 bd 4c d1 25 3e 1b c7 0e 3e
       0.18498771 -0.10569264 0.16193122 0.1394314
000350 97 9f 13 3c 26 64 9e bd b2 0e 49 3e 41 7a 3e be
       0.009010217 -0.077339455 0.19634512 -0.18601324
000360 28 6a 93 3e 20 6e 54 3d 23 03 0d bc 35 b5 51 3e
       0.28791928 0.051862836 -0.008606705 0.20479281
000370 dd 9d 34 3e a0 ce f3 3d 32 ba 8c 3e 32 be 7a 3e
       0.17638345 0.11904645 0.27485806 0.24486616
000380 51 14 44 3e 0d c1 88 be bc ae 12 be 31 ab 58 be
       0.19148375 -0.26709786 -0.14324468 -0.21159054
000390 48 1a 05 3e 5c 01 4a bb 72 fb 00 be b8 49 0a 3e
       0.12998307 -0.0030823564 -0.12595919 0.13504684
0003a0 8f f2 1e be 12 81 98 be 38 14 bb bc 0e c0 62 be
       -0.15522216 -0.29785973 -0.02283679 -0.22143576
0003b0 2d a9 1d bd 8d a4 90 be 4a c8 76 be de cf ec bc
       -0.038491417 -0.28250542 -0.24099842 -0.028907713
0003c0 22 e3 2e 3d 9a 1e 5f 3d 56 54 65 3e 8d 4f 99 be
       0.04269708 0.054472543 0.22395453 -0.29943505
0003d0 9e 2e 16 3e bb b0 8a 3e d2 69 e5 3c 96 3d 5b be
       0.1466622 0.2708796 0.02800456 -0.21410212
0003e0 4f 85 be 3d 4b 55 95 be 6a 73 43 3d 19 55 a3 3d
       0.0930277 -0.29166636 0.04771749 0.079752155
0003f0 71 8e c1 3d cf ec 10 be 46 e1 0e 3e e3 0e 67 be
       0.09450997 -0.14152835 0.13953122 -0.22564273

fc1_bias f4 [32]
000000 eb a1 a0 3e 2b 04 61 bd 52 e2 78 3e 45 6f d4 3b
       0.31373534 -0.054935616 0.24305084 0.006482991
000010 7b 18 53 bc 2e c8 1c 3d d3 06 cf 3b de cb 91 3e
       -0.012884255 0.038276844 0.006317952 0.2847585
000020 43 3c eb bd 41 7c 5f 3e 1a 3f 18 be c2 0a 02 3d
       -0.114861034 0.21824743 -0.14867821 0.03174854
000030 9f 45 4d bc 5b 13 9f 3e 8e 19 84 3d 8c 3e da 3d
       -0.012528806 0.31069455 0.06450187 0.10656461
000040 7a 7b bc bd 7c 98 48 3e 5f e6 6b 3e f0 71 67 be
       -0.09203239 0.19589418 0.23037098 -0.22602057
000050 f8 eb ef 3b 1f ac 83 bd b2 6d 48 3d 89 1b b8 bc
       0.007321831 -0.06429314 0.04893274 -0.022474067
000060 05 69 c0 bd cf 69 6d 3e ef db 8a 3e a1 ae 91 be
       -0.09395031 0.23184894 0.2712092 -0.28453544
000070 a3 1d 46 be 55 15 7c be 21 5b 44 3e 1a d8 31 be
       -0.19347243 -0.24617513 0.19175388 -0.17367592

fc2_weight f4 [32, 32]
000000 0d 92 a0 bd ec 9a 23 3e 4c e8 fe bd 64 a5 12 be
       -0.07840357 0.15977067 -0.12446651 -0.14320904
000010 6f f3 f6 3d aa 23 1d be 91 ae db 3d 4e 41 9c bd
       0.1205815 -0.15345636 0.10726655 -0.076296434
000020 89 a8 d0 3d ac ff 16 3e dd be f6 bc 27 4e 3e 3d
       0.101883955 0.14745969 -0.030120308 0.04646125
000030 c2 37 12 bc 6f a1 69 bd f9 ef 5f 3a 44 ab 54 bd
       -0.0089244265 -0.05703872 0.00085425336 -0.051921144
000040 a5 e0 a9 3d c9 50 c2 3b 5f da 27 bd 60 c0 09 3e
       0.08294801 0.0059300405 -0.04097974 0.13452291
000050 54 2e 2f be b3 af 13 be b4 41 0b 3e aa e2 ae bd
       -0.17107517 -0.14422493 0.13599283 -0.085393265
000060 f5 b5 2b bd 40 53 ce bd b6 28 81 bc b4 e6 7f bd
       -0.041921575 -0.100744724 -0.015766483 -0.062475875
000070 ba 77 49 bd e9 1d 91 bd a0 e9 02 be 57 0d eb bd
       -0.049186446 -0.07085783 -0.12784433 -0.11477154
000080 f9 9f 76 3d 9a a2 11 3d d3 30 95 3c 91 d3 7b 3d
       0.060211156 0.03555546 0.018211758 0.061481062
000090 5e a9 2c be 4e 59 06 3e d2 ef 2a be 77 73 23 3d
       -0.16861483 0.13120005 -0.16693047 0.039905038
0000a0 6c 29 25 be 03 40 2d be a9 8c a2 3d 0d e1 65 3c
       -0.16129082 -0.1691895 0.07936985 0.014030707
0000b0 17 b6 31 be 91 b3 b2 bd 3c f5 67 bd e7 68 ba 3d
       -0.17354618 -0.08725656 -0.056630358 0.0910204
0000c0 36 61 dc 3d 4a b7 4b 3d 31 9d 0a be 0f 06 b8 3d
       0.10760729 0.049735345 -0.13536526 0.089855306
0000d0 57 35 83 3c 17 a5 e7 bd b7 32 14 3e 9c 72 2a 3d
       0.016016645 -0.11310785 0.14472471 0.041613206
0000e0 1a ce 2c bd a4 3c fb 3d e1 a6 fa bd e3 61 31 bd
       -0.04218874 0.12267426 -0.12238861 -0.043306243
0000f0 26 9b 9d bd 7a 10 d4 bc 08 ca 03 bd c2 e4 7f 3d
       -0.07695608 -0.025886763 -0.032175094 0.06247402
000100 d6 79 6d 3d 0a 1f 47 bd 81 e3 31 3e 60 bf 69 bd
       0.05797752 -0.048613586 0.17371942 -0.057067275
000110 60 f8 86 3c f1 59 c7 bd 87 5f 2b 3e 0e e4 00 bd
       0.016475856 -0.09733952 0.1673566 -0.03146749
000120 b5 2a de 3d ce f0 50 3d ea 90 24 3e ef ae 0f 3e
       0.108479895 0.0510109 0.16070905 0.14031576
000130 dd 92 ef bd bf 4e 15 be fc 4d 5a bd ce 47 aa bc
       -0.11697934 -0.1458082 -0.053297028 -0.020786192
000140 f7 d1 be bd 43 60 17 be ab e2 e2 3d 1f 88 80 bd
       -0.09317391 -0.14782815 0.1107839 -0.06275963
000150 f6 6e d0 3d 81 fe 54 bc 98 2c 15 be 59 00 9d bd
       0.10177414 -0.013000132 -0.14567792 -0.07666082
000160 58 93 b5 3d c4 7b 31 3e 31 10 0f 3e 6f 5c 0e be
       0.08865994 0.17332369 0.1397102 -0.13902448
000170 98 e7 a1 bb b6 44 e5 bd 6a 50 78 bd 72 e4 6f bd
       -0.004940938 -0.11194746 -0.060623564 -0.05856747
000180 21 ac 36 bd 62 38 76 bc 29 7b a8 3d a6 fa 0f ba
       -0.04459775 -0.015028091 0.08226616 -0.00054923666
000190 0a 4d 5d 3c 88 26 90 bd dd cb 75 bd 56 31 10 3e
       0.013507137 -0.07038599 -0.060008872 0.1408132
0001a0 76 80 6e 3c f2 8c 0c 3e 01 14 28 3e 86 5f 1c be
       0.014556995 0.13725641 0.16413881 -0.15270814
0001b0 7f 05 88 bd 7c 70 19 3e 6d ff 49 3c b7 30 04 3a
       -0.06641673 0.14984316 0.012328965 0.00050426595
0001c0 bc 64 9f bd ca 8b c5 bd 9c 34 af 3d 1f 29 03 3e
       -0.077828854 -0.09645803 0.08554956 0.12808655
0001d0 7c 51 91 3d 2e 4f 3c bc 58 cd 24 be 09 40 46 bd
       0.0709562 -0.011493487 -0.16093957 -0.048400912
0001e0 a0 a6 ed bd 31 10 10 3d 0b ff 1b be 26 db f8 3d
       -0.11604047 0.03517169 -0.1523401 0.12151174
0001f0 9b a5 85 3d fe 03 32 3d 45 e7 21 3e 8e 52 30 3e
       0.06525727 0.04346084 0.15810879 0.17218992
000200 30 89 66 3d cd aa a8 bd a8 74 0a be 66 64 1f be
       0.056283176 -0.08235703 -0.13521063 -0.15565643
000210 b7 e9 8e 3d 04 c8 2c be 77 48 f9 bd eb 3b 18 3e
       0.06978171 -0.16873175 -0.12172025 0.14866607
000220 40 fa cc 3d 71 ce f2 3c 8e d7 31 bd a8 fa 1a bd
       0.10008669 0.029639455 -0.04341846 -0.0378367
000230 58 04 00 be de e9 11 3e 16 fb 2f be 26 e1 2c bd
       -0.12501657 0.1424937 -0.17185625 -0.042206906
000240 f8 60 d5 bd ae ce 20 be 8e 35 e9 3c 3c 20 a1 3d
       -0.10418886 -0.15703842 0.02846792 0.07867476
000250 64 fd 88 bd 22 9f d0 3d eb d0 ce 3d 9c 37 0f 3e
       -0.066889554 0.10186602 0.10098442 0.13986057
000260 91 67 c6 3d 22 56 20 ba e0 e5 8d 3d 62 5d 93 bc
       0.096877225 -0.00061163504 0.06928611 -0.017988864
000270 3c f5 84 bd f0 68 02 3e 75 b1 0f 3e 34 20 f9 bd
       -0.06492087 0.12735343 0.14032538 -0.121643454
000280 aa 37 21 3e 8a 43 0b be a2 6d 08 be 91 2f 2e bb
       0.1574389 -0.13599983 -0.13323072 -0.0026578645
000290 5d 64 4a bd a1 01 da bd 7a 2d f0 bd cf c1 8a bd
       -0.04941212 -0.10644842 -0.11727424 -0.06775247
0002a0 83 bd 96 bc 00 e6 ce bd d9 94 aa 3d 42 80 9f 3d
       -0.018400913 -0.10102463 0.08329172 0.07788135
0002b0 84 bf b9 b9 2b fa bc 3d 56 30 10 3e 86 02 06 bc
       -0.0003542864 0.09227403 0.14080939 -0.008179313
0002c0 9a b7 05 3e a8 9f c9 bc 0b 8b 96 bc 66 b5 ac 3d
       0.1305832 -0.024612263 -0.018376848 0.084330365
0002d0 a9 96 93 bb f2 2d 5a bd c4 16 32 be 66 b4 98 bb
       -0.004504044 -0.053266473 -0.17391497 -0.004660177
0002e0 5e 28 04 be d0 1f 15 3c eb 0d 9a bd b6 77 b9 3d
       -0.12906024 0.009101823 -0.07522186 0.09056036
0002f0 bd c4 e8 3d 11 10 1c be 6b c2 e2 3d f3 7a 95 3d
       0.1136565 -0.15240504 0.110722385 0.07298841
000300 a0 fd cf bc 7f 32 34 bc 91 30 85 3d cd 6a 29 3e
       -0.025389493 -0.010998367 0.06503404 0.16544648
000310 54 2a 7a bd 3f 18 24 be d4 ad 18 3e 6b ec 0f 3c
       -0.061075523 -0.16024874 0.1491006 0.008784394
000320 63 58 46 3d 39 7e 5a bd 3e bb e7 bd 0a 2c 5b 3d
       0.048424136 -0.05334303 -0.113150105 0.053508796
000330 23 21 86 bd 1f 17 3c bd c0 c9 8c 3d 1a 3d c9 3d
       -0.06549289 -0.045920487 0.06874418 0.09826107
000340 ff 89 23 be cc e1 48 3d 06 28 73 bb ee c1 8c bd
       -0.1597061 0.04904346 -0.0037102713 -0.06872927
000350 10 db 15 be 7e f7 2f be 5a 30 00 3e eb 2a 3c 3d
       -0.14634347 -0.17184255 0.12518445 0.045939367
000360 60 74 9e 3c f5 14 ab bb 98 40 b6 bd 73 e4 b3 bc
       0.019342601 -0.005221004 -0.08899039 -0.021959519
000370 25 1f c8 3d 31 8d 1c be 8e 76 23 be ae 5c 25 3e
       0.09771565 -0.15288235 -0.15963194 0.16148636
000380 4a ca 10 3e c3 3c 14 bd e4 2d 75 3c 46 a3 db bd
       0.14139667 -0.03619076 0.014964554 -0.10724501
000390 c6 b8 2a be 7b ba 33 3e b4 5a be bc 1e f1 86 3d
       -0.16672048 0.17551605 -0.02323661 0.06588958
0003a0 00 fa 9f bd bf 77 e3 3c e6 ea ea 3d 15 bf 13 be
       -0.078113556 0.02776706 0.114705846 -0.14428361
0003b0 ed 0e 6e 3d a8 c5 31 3d 77 97 b3 bc d2 44 31 3e
       0.058119703 0.04340139 -0.02192281 0.17311409
0003c0 22 40 06 3e b6 f8 55 3d 91 28 87 3d eb ed 8b 3d
       0.13110402 0.052239142 0.06599534 0.068324886
0003d0 e3 ff 41 bd 6e 7a 03 be 4c 09 6d bd 25 4b aa bd
       -0.047363173 -0.12839672 -0.057870194 -0.08315114
0003e0 99 35 15 be 78 b3 e6 3d 2d 3e c7 3c 4d fd 03 3e
       -0.14571227 0.112647 0.02432164 0.12889595
0003f0 a0 b1 00 3e e2 6b 1c 3e 91 45 c5 3a ae 43 02 be
       0.12567759 0.15275529 0.001505064 -0.1272113

fc2_bias f4 [32]
000000 35 ae 75 bd 11 6b 49 bd 44 12 6d bb 91 5b 98 3c
       -0.05998059 -0.049174372 -0.0036174217 0.01859835
000010 2c 6b 7c 3d 7e 27 9b 3d de 0c 98 bd a9 9e 28 bd
       0.061625645 0.07575892 -0.07424329 -0.041166935
000020 af 73 1f bc d9 74 32 be c2 b8 49 bd e9 64 ae 3c
       -0.009732171 -0.17427386 -0.049248464 0.021288352
000030 d7 1e 36 bd 60 ee 88 3d 82 82 b0 3c d2 64 1c 3e
       -0.044463005 0.066860914 0.021546606 0.15272835
000040 b7 5b d4 3d 1b e1 25 3e f9 64 21 be 26 6e 3e bd
       0.10369056 0.16199152 -0.15761174 -0.046491764
000050 05 70 a0 3d 4e df 6d 3d 14 c1 05 3e 37 2b 04 be
       0.07833866 0.058074288 0.13061935 -0.1290711
000060 87 01 2c be ef 80 1c 3c c1 17 89 bd 4c 09 ed 3c
       -0.16797458 0.009552225 -0.06693984 0.028935097
000070 86 c4 82 3d b1 e3 a8 3d 02 7f dc bc 5e 2d bf bd
       0.0638514 0.08246554 -0.02691603 -0.09334825

fc3_weight f4 [5, 32]
000000 4e 73 25 be 45 fc 05 3e 9c 21 33 be 5e 0a 5e 3c
       -0.16157266 0.13084514 -0.1749329 0.013552276
000010 dd db ec 3d 16 3d c0 bc 3c 96 ec bd a8 2c 04 3e
       0.11565373 -0.023466628 -0.115520924 0.1290766
000020 8a 6d 03 3e 0b 71 b6 3d 61 b9 d1 bd b7 b8 9f bc
       0.12834755 0.0890828 -0.10240436 -0.019497259
000030 12 06 f1 bd fe 96 34 be e6 8c b8 3c 17 65 4f bd
       -0.11768736 -0.17635724 0.022528123 -0.050633516
000040 33 a4 2d 3d c0 4f f4 3d dc c6 55 bd e1 51 e6 3c
       0.04239292 0.119292736 -0.0521916 0.028115215
000050 69 de 88 bd 29 a1 de bc 0f 8f ed bd 9e 7a 02 bd
       -0.06683046 -0.027176457 -0.11599552 -0.031855218
000060 31 00 fe bd ad 8e 53 3d 19 b9 99 bd 00 18 ac bd
       -0.1240238 0.051649738 -0.07506008 -0.08403015
000070 59 df 3f 3d d3 9c 27 be 7b 84 a7 3c 8e 77 72 3d
       0.04684386 -0.16368417 0.020448914 0.059196047
000080 85 eb 21 be 18 6b 0e be 15 ee 2c 3e bd d8 32 3e
       -0.158125 -0.1390804 0.16887696 0.17465492
000090 c2 07 fc 3d 2e 87 bf 3d 7e a8 74 3d 46 2b 01 be
       0.12306167 0.09351955 0.059731 -0.12614164
0000a0 b0 49 cb bd f4 a0 8b 3c 8c b6 97 3b b6 93 2c be
       -0.09926164 0.017044522 0.0046299156 -0.16853222
0000b0 72 12 1c 3e a2 cb 02 3e 7c c5 ac 3d 16 55 50 3c
       0.15241411 0.12772992 0.08436105 0.012715599
0000c0 85 f0 ac bd 6f 57 f7 bd eb 0f 44 3d 4d 32 77 bd
       -0.08444313 -0.120772235 0.047866743 -0.060350705
0000d0 00 b9 5e bd 7c 0b 9d 3c 6a c7 21 3e 39 e3 fd 3c
       -0.05437565 0.019170515 0.15798727 0.030992137
0000e0 69 43 ed bd 51 e3 5a 3d dd 82 05 be 41 8f e1 3d
       -0.11585123 0.053439442 -0.13038202 0.11013652
0000f0 59 03 a2 ba d5 de c7 bd 9f 38 02 be 56 0d 33 bd
       -0.0012360617 -0.09759299 -0.12716912 -0.04371389
000100 91 bc 91 3d b0 3c 0b be d3 cf b9 bc 90 72 28 3e
       0.07116044 -0.13597369 -0.022682106 0.16449952
000110 b2 a7 34 be 32 81 19 3d 96 f5 0f bd 35 1a d2 3c
       -0.17642096 0.037476726 -0.03514632 0.025647262
000120 d7 c8 9c 3d 8c df 02 3e fc ec 30 be 43 60 96 3d
       0.07655495 0.12780589 -0.17277902 0.07342579
000130 f9 d6 eb 3d af 36 ae bc 07 1a 18 3e ae 6f 0e be
       0.11515612 -0.02126631 0.14853679 -0.1390979
000140 b2 6b 14 3d 8d a8 79 bb a6 73 fe 3c cd 8f d8 3d
       0.03623552 -0.003809485 0.031061005 0.10574303
000150 4b 1e ee bd 53 6f af 3d 0c ef dd bd ec e8 3e 3d
       -0.11626872 0.08566155 -0.1083661 0.04660885
000160 3f 66 07 3e 09 0a 2e be 64 47 0e 3e 4a b9 0f 3e
       0.13222598 -0.16996016 0.13894421 0.14035526
000170 45 5e 29 3e f6 1d f9 3d 1d a4 81 3d 40 5b 80 3a
       0.16539867 0.12163918 0.0633013 0.000979282
000180 d5 74 25 3e 0a 78 a9 bd c6 1b 09 be 58 2b 22 3e
       0.16157849 -0.08274849 -0.13389501 0.15836847
000190 b5 37 b9 bd 90 a9 11 3e c5 1d ba 3d 93 a4 21 3d
       -0.090438284 0.14224839 0.09087709 0.03946359
0001a0 f8 e8 39 bc 6b 47 0f 3d 77 df 07 be f9 b6 01 bd
       -0.011347048 0.03498022 -0.13268839 -0.031668637
0001b0 79 be e4 bd 14 4b 2c 3e c8 7b 90 3d 21 f9 73 bd
       -0.11169142 0.16825515 0.070548594 -0.05956376
0001c0 91 ec 60 bd e8 bb d2 bd 27 a1 21 be 44 8e cb bd
       -0.054913107 -0.102897465 -0.15784131 -0.099392444
0001d0 b2 fe 5a bd 9a 52 2e be 9e 5b 6b bd 4f e5 29 3e
       -0.053465553 -0.17023697 -0.05746042 0.1659138
0001e0 da e4 d8 39 5d 8c a8 3c d5 d7 ee bd f3 c2 72 3d
       0.00041369238 0.020574743 -0.116622604 0.05926795
0001f0 3e 68 05 be 09 c2 70 3d 57 ee ce bd ed cf 1d 3c
       -0.13028046 0.058778796 -0.101040535 0.009632093
000200 78 ca 10 3d d4 1f 2c be ce 8b 96 3d a0 1e a0 bb
       0.03534934 -0.16809016 0.073508844 -0.0048864633
000210 e5 18 09 3e c3 be 18 be 6c 7b cc 3d ea c2 01 3e
       0.13388403 -0.1491652 0.09984478 0.1267201
000220 ea c2 a1 3d 82 30 25 3e 9a 88 70 bd ea 23 38 bd
       0.07898505 0.16131786 -0.058724023 -0.044956125
000230 64 86 11 3e 62 21 14 be ad 6a d8 bd 56 b5 90 bd
       0.14211422 -0.1446586 -0.10567222 -0.07065837
000240 8c 8f 18 3e 4d c8 ed bc c0 84 2a bd 37 18 6c 3d
       0.14898509 -0.029026175 -0.041630507 0.05764028
000250 1b c2 1f 3d 28 18 eb 3b 07 bb d1 3d a9 5b fc 3d
       0.039003473 0.0071745105 0.10240751 0.1232217
000260 a8 c8 2e 3e 71 12 a8 3d 10 26 91 3d e0 4a b3 bd
       0.17068732 0.082066424 0.07087338 -0.08754516
000270 6d a5 81 bc e8 30 12 be 3d 53 f4 3d ab 8f aa bb
       -0.015825951 -0.14276469 0.11929939 -0.005205115

fc3_bias f4 [5]
000000 56 e1 82 3d fb 86 ce bd 71 49 fe 3c f1 ae 9a 3d
       0.06390636 -0.10084339 0.031040879 0.07552899
000010 ce 4e 03 be
       -0.1282303
