scripts/trimmed_network.onnx (onnx, 56796 bytes, 14 tensors)

tokenizer_conv_layers_0_0_weight f4 [8, 3, 3, 3]
00000000: 7dac d43d bc89 51be 371f 80be 2087 0abe
00000010: bfc7 253e 1ce8 d2be bf78 0b3d 6f8b 01be
00000020: 39c4 c23e dc14 a5bd a98b 2abe 13bf 433f
00000030: d7a1 5dbe 7a41 51bd 2e90 afbe d5ed 113c
00000040: 4aa5 b2be 2022 c0bd 2c88 5a3e 83a3 b63e
00000050: 444f 6d3d f3ff f7be 4f71 0cbf 6318 843d
00000060: 10cb efbe 9a65 283f d650 d7bd 084b e93d
00000070: 0d01 dd3d dfac 1b3e 0dd7 3bbe df2b 103e
00000080: 38b2 38be 8ec4 9fbe 31f2 873e dfbe 75bd
00000090: cdbd 9fbe dfe9 d73e b222 abbe fce8 f93e
000000a0: 2d4e bc3d 2870 21be 0411 00bf 047a 48be
000000b0: 997c 8f3e 05b3 f43d daec c53a c395 2abe
000000c0: c6a5 883d 7abb 0abf 8817 72be 5097 073f
000000d0: 4e22 b83b 6840 a83e 9c4f 873d d72c 153e
000000e0: 134c ec3e 2960 403f 328c 353e 48a8 8a3c
000000f0: 737c 95bd b455 0ebe 1138 353f 7ca3 1dbe
00000100: c8db e4bd 2aa5 bfbe ad8f 0b3e 538a 723e
00000110: fa4e 9bbd 460b a9bc 1129 ccbe a467 6cbe
00000120: b925 8bbe ffc0 dc3c cd02 65be a28c 213d
00000130: 91e6 a7be 4441 6dbe d2b2 c13d 93e3 08bf
00000140: ee9e 7b3e 6d51 a23d 3760 183e fa7d 52be
00000150: 40ca 993a 8fd4 20be 2a3a 113c 5851 b0be
00000160: c57c d1bd 00b2 233e e6a5 9cbe 621c f03d
00000170: 702f 003f cf8c 61be 5144 103f 1769 79be
00000180: 7be9 55be 3b58 293d 6beb 013e 67a6 af3e
00000190: df3f a0bd 9690 82be 7b69 a43e 7423 823e
000001a0: 02ad 30bd c703 77bd 6a9d c33e 01c3 be3e
000001b0: efac 43bf ed44 e43e a52e a63c 87a1 34be
000001c0: 69f8 713e d4a0 90bd df8f 14ba 5484 673d
000001d0: 75ee d43e 7321 563e 99a2 3e3f 6be8 a23e
000001e0: 7b6f 2e3e a163 d83d 6a82 53bd ea96 793d
000001f0: 3572 01be 6187 80be 9558 a33d 507f 92be
00000200: b6b6 ab3d 25ba a6be 915a 58bc 024f c33e
00000210: 5acd 1a3e edbd bb3e fdf3 00be f8d8 1bbe
00000220: 68e5 babe ae99 50be fc06 68be 414e adbe
00000230: 8e8b bc3c c5d0 00be a15c d03d 861e 1c3e
00000240: 0f33 9fbe cd77 833d 4836 153e b0f3 10bb
00000250: 2f5b 9dbe ce38 a63e 11be 163e 4763 15bd
00000260: d1be a23d f0df 24be 4ea8 ffbd 66fd 023e
00000270: b3eb 5b3c ae0c 7c3e 1c26 6238 4766 083d
00000280: f6a4 b1bb a66e e2bd 0408 7b3e dfae 60be
00000290: 7270 5a3e a585 4f3c 29ff d4bd 69b8 03bc
000002a0: 94ae af3d 0805 e5bd ba85 833e f6e5 1f3f
000002b0: 995e b53e 35a4 aebe 5109 1ebc 232b 143d
000002c0: 3dee 193d be1f 20be 3be9 1b3f bec6 bfbc
000002d0: 13e2 b5bd 6c85 14be 9e25 91bd 9f33 82be
000002e0: e521 393e 605b 893e 9804 c73e cc3b 4bbd
000002f0: 1ffd 94be 1f86 46be 0f39 1d3d 432e e4be
00000300: b8a6 3b3e 6c6b e6be d118 a5bd a029 a0bd
00000310: 8a1e a23e 851b 123e f348 5b3d 20c7 143e
00000320: 1f82 a03e 0f12 07bf a796 193e ab7b a63e
00000330: 6a6b 9a3e 9a97 82be c2f4 fcbd 8aa7 36bd
00000340: 4bd1 66bd 94a7 6e3e 3df3 b4be a1fb e0bd
00000350: 56a9 11bd 892b 9bbe ad2f 33be 66cf 933e
0.10384462 -0.20462698 -0.25023815 -0.13528109 0.16189478 -0.4119271 0.0340507 -0.12650846
0.3804033 -0.08060619 -0.16654839 0.7646343 -0.21643768 -0.051087834 -0.34289688 0.008906801
-0.3489173 -0.09381509 0.21341008 0.35671625 0.05793692 -0.4843746 -0.54860395 0.06449964
-0.46834612 0.6578003 -0.10513465 0.11391264 0.10791216 0.15202664 -0.18343754 0.14079235
-0.18036735 -0.31204647 0.26551965 -0.059996482 -0.31199494 0.42170617 -0.33424908 0.48810565
0.09194598 -0.1576544 -0.50025964 -0.19577795 0.28024748 0.11948208 0.0015100494 -0.16658692
0.06672244 -0.54192317 -0.23641789 0.5296526 0.005619324 0.32861638 0.06606981 0.14567886
0.4615179 0.7514673 0.17729262 0.016925946 -0.072991274 -0.1389988 0.70788676 -0.15394396
-0.111747324 -0.37430698 0.13629027 0.23685579 -0.07583423 -0.020635258 -0.3987508 -0.23086411
-0.27177218 0.026947496 -0.2236435 0.03944076 -0.32793096 -0.23169428 0.094579354 -0.5347225
0.24572346 0.07925687 0.14880453 -0.20555869 0.0011733249 -0.15706085 0.008863965 -0.3443706
-0.10228876 0.1598587 -0.3059532 0.117241636 0.50072384 -0.2202637 0.5635424 -0.24356495
-0.20889847 0.04134391 0.12687461 0.34306642 -0.078246824 -0.25500935 0.32111725 0.25417674
-0.043133743 -0.060306337 0.38206035 0.3725815 -0.7643575 0.44583836 0.020285914 -0.17639743
0.23629917 -0.070619255 -0.00056671904 0.056522682 0.41588178 0.20911197 0.74466854 0.31817946
0.17034714 0.10565878 -0.051638044 0.06093494 -0.12641223 -0.25103286 0.0797588 -0.28612757
0.08384459 -0.32563892 -0.013205186 0.38146216 0.15117398 0.3666834 -0.12593074 -0.15219486
-0.36503148 -0.20371124 -0.22658914 -0.33848765 0.023015764 -0.1257964 0.101739176 0.15246019
-0.31093642 0.064193346 0.14571488 -0.0022117905 -0.3073363 0.32465214 0.14720942 -0.03647163
0.079465516 -0.1610105 -0.124832734 0.12791976 0.013422894 0.24614212 5.391809e-05 0.033300664
-0.005421276 -0.11056261 0.24514776 -0.21941708 0.21331957 0.012666141 -0.104002304 -0.008039572
0.0857822 -0.111826 0.25687963 0.6246027 0.35423735 -0.34109655 -0.009645776 0.03617395
0.037580717 -0.15637109 0.60902756 -0.023410197 -0.08881011 -0.14504021 -0.07087253 -0.2543001
0.18079336 0.26827526 0.38870692 -0.049617574 -0.29099366 -0.193871 0.038384493 -0.44566545
0.18325317 -0.4500383 -0.08061374 -0.07820439 0.31663924 0.1426831 0.053536367 0.14529085
0.31349275 -0.5276193 0.14998876 0.32516226 0.30160075 -0.25506288 -0.12351371 -0.04459337
-0.05635194 0.23306113 -0.35341826 -0.109854944 -0.035561882 -0.30306652 -0.17498656 0.2886917

classifier_positional_emb f4 [1, 256, 8]
00000000: 0cef d03c 85ba 9b3e 806e d13d 4f66 913e
00000010: e39b 183d ca80 d8bd 65bb 85be 98b9 b13e
00000020: e9ee 323d f6f5 003e 1c9e cabe 7b8e 53be
00000030: d9ee 483e 7fd0 383e 0a07 5ebe 0ecf c93e
00000040: bd43 9c3d 18a1 adbe 5cd0 a13e 13c1 f33d
00000050: 7833 ec3e 8b17 5dbd d7e4 84be c419 dbbd
00000060: fa76 4a3d 27c8 a7bd 7f73 8abe 8581 4d3d
00000070: c404 843d b474 19bd 2c64 09be abbd a9be
00000080: 82ff 11bd 4a3f 083d b103 90be 3041 ba3c
00000090: e6d3 9abd a4b4 8a3e 5bc2 653d 391b 183e
000000a0: 0f48 be3c ad9e ca3d 593d dfbd bb3c 9abe
000000b0: 8956 a83e 5e2e 92bd 1912 94be 6fb9 e83e
000000c0: 6262 04bd 7415 243c d5b1 8b3d 901f 1cbe
000000d0: 714e 8f3e 048d 36be 8f95 ddbd f058 503e
000000e0: d523 92bd f784 37be e686 62be 374c 45be
000000f0: 27a8 013d 44bd 8f3e 905e a23e 65eb 80bb
00000100: 9a8a 353e b0bc 05bf 6ba1 413e f76f 55be
00000110: 0ed5 133e a69c 24be f5ba 373d 223a 8ebb
00000120: 88c4 1d3e cc15 58be b4bf 8d3d 3356 8a3e
00000130: 20bc 12be c479 ba3c 798f a83e 06f4 563e
00000140: e805 4bbe b85e 1fbe 41bb eabe 02eb 5ebe
00000150: b9f8 c43c cd10 5cbd 2e79 2f3e c606 863d
00000160: d251 143e 10df 6dbe 7896 05bd 111e 00be
00000170: 5f43 e8bd bad0 913e 2565 6bbe 09d5 fdbb
00000180: c439 243e d3e1 cebd 0e1d 5ebe 8a95 e33d
00000190: fe92 27be 88ee 71be 1000 87be e79d 06be
000001a0: cb46 d23d ee31 eebc 55ba 12bd c309 5b3e
000001b0: 28c1 1b3e 445b bf3c fa83 893e df20 7d3e
000001c0: 5c7c 0bbd 8bdf 94be 405e ccbd 5769 0cbe
000001d0: ddec 243e f875 c93e f3bb b43b fe45 af3d
000001e0: b280 a03e 6ecb 263e 1d99 18bd 7197 8fbd
000001f0: e7c7 3b3e c263 b53e 1855 1f3e c6fe e7bc
00000200: 511b bfbd 3519 0e3e 3a99 6bbb de35 aabe
00000210: 4429 2dbd cada 1b3e 1c06 c7bd 75ae 0dbe
00000220: 55c8 173e e609 c0bd 364a 453e 4456 4b3d
00000230: cb4b 6a3c b884 32be d724 fa3b b087 943e
00000240: a398 65be 2fcc 203e 5979 0abf 244b e63e
00000250: 1f17 4abc 112e 813e ca96 80be 0e0e cb3d
00000260: 4128 c43a 3abf 793e 4655 9dbe d614 823e
00000270: e8af 87bd 623b 99be 283f b9be bebb 36bd
00000280: ca8d e63d a547 06be 12e1 2ebc 164e e4bc
00000290: e137 22ba dde0 ab3d 6416 12bf 015b 813e
000002a0: c127 7fbc f127 0d3e bf36 c83d e51e 89be
000002b0: b838 263e 29ef 993e 2e89 d5be a462 813e
000002c0: e4a2 363e 0d8e 213e 5e25 be3e fd89 9dbe
000002d0: 3cbc 553c 9280 04bd e73a f73e a58b c9bd
000002e0: 803b c53e e52a 92bc 2d23 9ebd 2e6e 4dbe
000002f0: 180f 61bd 459c 45be f7d9 83be 0eb1 093c
00000300: 70fe f03d e6d6 64bd e964 9ebe 7805 48bd
00000310: ce8d 843c 9905 cf3d 95ea bebc deda 39bd
00000320: 5844 20bd 48f2 4f3e 4608 a7be 7286 983d
00000330: 01fd 2bbe 3f58 c4bd 36c0 633e a9d1 2fbd
00000340: dc58 82be 3e98 27bd e707 ff3d 5d2f e5bd
00000350: 265a 173e f8a8 3fbe 7184 17be 72c4 0cbe
00000360: 98bb aebe 4b01 4c3e f325 013d d363 a03d
00000370: 85b7 f33c da5f f5be 8d7e 68bd d9d1 de3e
00000380: 68ee 33bd af1e 343d 7b32 763e 7e29 39bc
00000390: 2f9e 313c c9f3 973d 1049 12be 0d48 0c3f
000003a0: a0c4 273e 02ea 1f3e f0d0 36be 2187 a5bd
000003b0: 1617 2439 d24c 8ebe a08d d13c 2c4a 9a3d
000003c0: 3b5f a13d fb92 d6bd a9f8 19be 5305 a7be
000003d0: fd26 913e db8e 07bd 080f dbbd af1a c83e
000003e0: 40f9 2ebe 0701 58be 9b18 50bb 72c4 db3d
000003f0: 8591 1abe 8682 393d fb73 babd 3a90 a9be
0.025504611 0.3041574 0.10226154 0.28398368 0.03725804 -0.105714396 -0.26119533 0.3471191
0.043684874 0.12593827 -0.39573753 -0.2065982 0.19622363 0.18048285 -0.21682373 0.39415783
0.076301076 -0.33911967 0.31604278 0.1190206 0.46133018 -0.05397753 -0.2595584 -0.10698274
0.04942987 -0.08192473 -0.27041242 0.050172348 0.064462215 -0.037464812 -0.13417119 -0.33152518
-0.035644062 0.033263482 -0.28127816 0.022736162 -0.07559948 0.27090943 0.056093555 0.14854135
0.02322772 0.09893546 -0.10900373 -0.3012446 0.3287852 -0.0713775 -0.28920057 0.45453975
-0.032320388 0.01001488 0.06821028 -0.15246415 0.27989534 -0.1782723 -0.10819542 0.20346427
-0.07135741 -0.17921816 -0.22121772 -0.19267355 0.031654503 0.28074086 0.3171277 -0.003934311
0.17728654 -0.5224104 0.18909232 -0.20843492 0.14436743 -0.16075382 0.04485603 -0.004340426
0.15407002 -0.21102065 0.0692133 0.2701889 -0.14329576 0.02276314 0.3292196 0.20991525
-0.19826472 -0.15563476 -0.45845988 -0.21769336 0.024044381 -0.05372696 0.1713607 0.06544261
0.14484337 -0.23229623 -0.0326142 -0.1251147 -0.11340975 0.28479558 -0.22987802 -0.007746343
0.16037661 -0.10101666 -0.21690771 0.11112507 -0.16364667 -0.23626149 -0.26367235 -0.13146172
0.10267409 -0.029076543 -0.03582223 0.21390443 0.15210402 0.023358949 0.26858503 0.2471957
-0.034054145 -0.290768 -0.09978914 -0.13712059 0.16105981 0.39347816 0.0055155694 0.08558272
0.31348187 0.1628854 -0.037255395 -0.07011307 0.18337975 0.35427672 0.15559804 -0.028319728
-0.09331382 0.13876803 -0.0035949484 -0.33244222 -0.042275682 0.1522018 -0.09717962 -0.13836081
0.14822514 -0.09376888 0.1926659 0.049642816 0.014300297 -0.1743344 0.007633786 0.2900977
-0.22421508 0.1570289 -0.5409141 0.44979203 -0.012334614 0.25230458 -0.25115043 0.0991479
0.001496561 0.24389353 -0.3072912 0.25406522 -0.06625348 -0.29928118 -0.36180997 -0.04461264
0.11257513 -0.13113268 -0.010673778 -0.027869266 -0.0006188136 0.08392499 -0.57065415 0.25264743
-0.015573443 0.13784768 0.09776067 -0.26781383 0.16232574 0.30065277 -0.41706222 0.2527057
0.17835575 0.15776844 0.37137884 -0.3076934 0.013045367 -0.032349177 0.48287126 -0.09841088
0.38521957 -0.01784272 -0.07721553 -0.20061561 -0.054946035 -0.19297893 -0.2575223 0.0084040295
0.1176728 -0.055869006 -0.30936363 -0.04883334 0.016180899 0.101084895 -0.023305217 -0.045374744
-0.039127678 0.20307267 -0.326235 0.074475184 -0.16795732 -0.09587144 0.22241291 -0.042924557
-0.2545842 -0.040916674 0.12452679 -0.111906745 0.14780483 -0.187168 -0.14796616 -0.13746813
-0.34127498 0.19922368 0.03153033 0.0783154 0.029750595 -0.4792469 -0.056761313 0.43519476
-0.043928534 0.043974575 0.24042694 -0.011301396 0.010840937 0.07419545 -0.14285684 0.5479744
0.163836 0.1561661 -0.17853141 -0.080824144 0.00015648859 -0.27792984 0.025580227 0.075336784
0.07879492 -0.10477253 -0.15036263 -0.3262125 0.28350058 -0.033095222 -0.10696226 0.39082858
-0.17087269 -0.21094142 -0.0031752947 0.10730828 -0.15094574 0.045290492 -0.09104153 -0.3311785

classifier_blocks_0_pre_norm_weight f4 [8]
00000000: 0000 803f 0000 803f 0000 803f 0000 803f
00000010: 0000 803f 0000 803f 0000 803f 0000 803f
1.0 1.0 1.0 1.0 1.0 1.0 1.0 1.0

classifier_blocks_0_pre_norm_bias f4 [8]
00000000: 0000 0000 0000 0000 0000 0000 0000 0000
00000010: 0000 0000 0000 0000 0000 0000 0000 0000
0.0 0.0 0.0 0.0 0.0 0.0 0.0 0.0

classifier_fc_weight f4 [10, 8]
00000000: 0355 a43c 54bc 02bc 6674 14bc c5f6 7d3c
00000010: d13a 2abd df2b df3c d7bc f53c 4d81 a33b
00000020: 6ebc f23c acd8 4fbc df9a 673b 70cb 2f3d
00000030: 0ef1 393c d6e6 15bc ccef 84bb fc0e 93bb
00000040: d5a4 c83c c23c bcbc 7b19 7d3c 12b3 ac3c
00000050: 8ae1 7c3c 8f72 c83c c00e 2db7 b7f3 40bc
00000060: 2b57 5dbd 4073 82ba 9425 93bb a48e ddbc
00000070: eff3 7539 71e0 6a3c 3c4f 7c3c a6af 0fbc
00000080: 569e b93b 913a 763c 7943 8f3c 5eb9 4c3c
00000090: 94cb cc3b 4d11 fe3b e9df 243b d313 d13b
000000a0: 49a7 24bd 0142 2bbc d799 20bc f333 b2ba
000000b0: 5604 eebb e830 66bb a4db 563c 3185 a33c
000000c0: ccec 94bb 8e7a d8bc 413b 86bc 785f d13b
000000d0: df27 8cbc 29b9 d5bc 3592 c73c 102e 933a
000000e0: d56f 16bc efb1 b33b 1782 c1bc 3146 6fbc
000000f0: 5cc2 d8bb 7882 033d cc11 ba3c d2f7 3fbc
00000100: cde7 0c3d 4f3b 79bc 268d 04bd bdaf 26bd
00000110: e033 ccbc fe58 13bd 2fc6 37bb c04f a33c
00000120: 932f 653a e1b4 0e3d fda9 79bb 18e0 6a3c
00000130: bfd1 b93c 927c 963b bcd7 163c 19b1 41bc
0.020060068 -0.007979471 -0.009060955 0.015500729 -0.041559998 0.027242599 0.029997272 0.004989779
0.029630866 -0.012685936 0.0035340113 0.042918622 0.011348976 -0.009149274 -0.0040569063 -0.0044878703
0.02449266 -0.02297819 0.01544797 0.021081481 0.015434632 0.024468688 -1.0315038e-05 -0.011776856
-0.054038208 -0.000995256 -0.0044905636 -0.027045555 0.00023455893 0.014335738 0.01539975 -0.008769905
0.005664627 0.015028612 0.017488228 0.012495367 0.0062498543 0.0077535273 0.0025157875 0.006380537
-0.040198598 -0.010452748 -0.009802303 -0.0013595804 -0.0072637005 -0.0035124365 0.01311389 0.019960972
-0.00454483 -0.026425626 -0.016385676 0.0063895546 -0.017108856 -0.026089268 0.02436171 0.0011228938
-0.009181936 0.005483858 -0.023621602 -0.014604137 -0.0066149663 0.032106847 0.022713564 -0.0117168
0.03440075 -0.015211894 -0.032361172 -0.04069494 -0.02492708 -0.03597354 -0.002804171 0.019935489
0.0008742746 0.03484047 -0.0038095706 0.014335655 0.022683023 0.0045924867 0.0092067085 -0.0118220085

onnx__MatMul_135 f4 [8, 24]
00000000: 2814 e33b d159 4e3b 1b8b 103c f201 253d
00000010: 5757 e3bb 897d 2c3c be7e dc3b e9ab 9cbb
00000020: e60f 61bc c118 023d e4b1 a139 945a 673d
00000030: 251b ecbc 9b8a da3b 5c50 41b9 6a17 603b
00000040: d25f 9cbc cdfd 083c 42d1 c6bc 2397 d03c
00000050: 8bd9 ae3c 24ed 7fbb e5cb 9b3c f694 9bbb
00000060: 4463 fcbb 2dc4 5cbb 3854 30bc f5be c03c
00000070: e221 d53c db02 96b9 e7e7 0cbc ad3d 74bc
00000080: 2dfb 82ba 82de e1bb 02ed 00bc dd4a 933c
00000090: 8234 e9bc 3f8b 1bbd 5c8f 213d 29f1 1bbc
000000a0: 414b 03bc ca0c 4f3d 980f b03b 80e3 f03b
000000b0: 487e 3c3c bd40 d23c 30c9 03bd 3d47 b6bb
000000c0: 4d58 3d3c 18de 393c c273 afbc aeb1 77bb
000000d0: 06ec 85bb a0c0 393c 2ccb aebc 7681 0abc
000000e0: 984c dcbc ad7e bdba 862c a0bc 84f7 91bb
000000f0: 6351 4d3b 636d 66bb 4911 c2bc 6160 7aba
00000100: 8bb5 063d 92d0 27bc d295 d7bc 8ec9 1d3c
00000110: b66f 00bd ea78 283c 75f2 26bd cf51 cabb
00000120: d39b 9d3c 73a8 d4ba ca94 923c 4c03 19bd
00000130: 547a 2cbd 3a9f fd3b 7085 53bb 4bd7 8cbc
00000140: 8965 85bc 6686 b63c 03ca 59bc 2a8b 31bd
00000150: c66b b03b 911d 073b 65fb d33c 6cad b1bb
00000160: a2b6 3ebd 62dd 24bc 7f12 24bd dd19 c3bb
00000170: 337d 86bc 3604 9e3c 09b3 aebc f0c5 db3a
00000180: 10ff 293d c0d1 a4bc 4d30 41bc 2903 263d
00000190: f7bb 33bc baf2 aebc 01ed 7e3a 83f8 0b3d
000001a0: 7216 80bc f4bc d1bc 77ec 01bd 2204 993c
000001b0: 4a9e f53c c5f9 1c3c 7ee1 0fbb ed24 eb3b
000001c0: e43f d9ba 6f8a a739 100b 2ebc c9c3 58bb
000001d0: 26d0 60bc dcd4 21bd c62b eebc 9466 943c
000001e0: 4a4a 90bb 3d27 fd3c 5ef5 00bd d89a ee3c
000001f0: 956f a4bb 5a90 febc a708 31bc 525e 0fbd
00000200: 7b0e 51bc 7b41 05bd 94ad a9bc f107 aa3c
00000210: 4a4a c73c 8cd9 15bc 06cd 89bc be4d 89bc
00000220: 068e fdbc b9d5 1a3c a344 babc d1f5 ad3c
00000230: 1d9b 123c 4eae 81bd 024e 97bc 2b91 3ebc
00000240: 15ca a4bc 0531 c73c f53f 74bc bed1 8abc
00000250: 9e9e 793c a8ce 053c 6660 f33a ddab 8ebc
00000260: 70f1 6fbc c1fc 4aba d750 3d3c d548 09bd
00000270: 3580 cfbc 4748 a2bc f709 16bb 2413 a0bb
00000280: 87d3 d9bb 817f d5bc 1770 24bc 6eed d43b
00000290: 8c1c c23b 7693 debc 406e 793c 041d 9d3b
000002a0: d267 4dbb 3f46 cd3b f18d 253b 9acf 6c3c
000002b0: 800a e93c f774 833d e002 9bbc 4395 0e3c
000002c0: 7cb0 083b 59ca d03b f890 23bc c738 173d
000002d0: ac9f cfbb cbe2 963c 830d 8c3c c1fd 0d3b
000002e0: 5509 e83b 7e9c 543b 188c d73c 5c83 373d
000002f0: 8593 ddbc 46e8 903c 9288 13bc 3afb d4bb
0.006929893 0.003148664 0.008822228 0.04028506 -0.006937902 0.010527977 0.006728976 -0.0047812355
-0.013736701 0.03176189 0.00030840852 0.056482866 -0.028821537 0.006669355 -0.0001843585 0.0034193643
-0.01908866 0.008361292 -0.024269704 0.025462693 0.021343967 -0.003905126 0.019018123 -0.004747982
-0.007702263 -0.0033686266 -0.010762267 0.023528555 0.026017133 -0.00028612357 -0.008600212 -0.014907283
-0.0009993069 -0.00689298 -0.007869007 0.017980034 -0.02846742 -0.037974592 0.03944336 -0.009517946
-0.008013547 0.050549306 0.0053729527 0.007351339 0.011504717 0.025665635 -0.03217429 -0.0055626915
0.011556697 0.011344455 -0.021417502 -0.0037795114 -0.004086974 0.011337429 -0.021337114 -0.008453717
-0.026891991 -0.0014457308 -0.01955248 -0.004454555 0.0031329028 -0.0035160414 -0.023689883 -0.0009551105
0.032887977 -0.010242598 -0.026316557 0.009630574 -0.031356536 0.010282734 -0.04075857 -0.006174303
0.019239342 -0.0016224518 0.017893214 -0.03735666 -0.04210885 0.0077399286 -0.003227558 -0.017192503
-0.016283767 0.022280883 -0.013292792 -0.043345608 0.0053839413 0.0020616988 0.02587671 -0.005422285
-0.04656089 -0.010062547 -0.0400567 -0.005954011 -0.016417122 0.019289117 -0.021325605 0.0016767364
0.041503012 -0.020119548 -0.011791301 0.040530358 -0.010970107 -0.021355975 0.00097246474 0.034172546
-0.015635703 -0.025602795 -0.03171965 0.018678728 0.029982705 0.009581034 -0.0021954472 0.0071760328
-0.0016574827 0.00031955863 -0.010622755 -0.0033075681 -0.013721501 -0.03950964 -0.029073607 0.01811532
-0.004403387 0.0309025 -0.031484 0.02912657 -0.0050181844 -0.031074692 -0.010805286 -0.03500206
-0.0127598 -0.03253315 -0.020712651 0.02075574 0.024327416 -0.0091461055 -0.016821396 -0.016760703
-0.030951511 0.0094503695 -0.022737807 0.021235378 0.008948115 -0.06332074 -0.018469814 -0.01163129
-0.020115891 0.024315367 -0.014907827 -0.016945716 0.015235571 0.0081669465 0.0018568158 -0.017415935
-0.0146449655 -0.0007743352 0.011554918 -0.033516724 -0.025329689 -0.019809855 -0.0022894123 -0.0048850942
-0.0066475305 -0.026061775 -0.01003649 0.0064980304 0.005923813 -0.027169924 0.01522404 0.0047947187
-0.00313424 0.0062644775 0.0025261606 0.014453793 0.02844739 0.06418794 -0.01892227 0.008702579
0.0020857146 0.006371778 -0.009983294 0.03691938 -0.006336173 0.01841869 0.017096287 0.0021666142
0.0070811906 0.003244191 0.02631192 0.04480301 -0.027047882 0.017688882 -0.009004729 -0.006499675

onnx__MatMul_138 f4 [8, 8]
00000000: 0c19 54bc 280e 23bd b8a0 443b d6c5 e3bc
00000010: f413 ea3c 7ac9 2bbc 8f1b 853c e091 40bc
00000020: 4618 983c 268f 193c b8ed 8f3c b263 503d
00000030: d2b2 20bd 4f52 2bbb f5e0 b7bb 4366 e5bc
00000040: 1a1d b03c 9dd0 16bc c1ff 973c 98e2 24bd
00000050: edbd 0bbb 3bc3 92bc 1554 1e3c 4222 1c3d
00000060: 9d88 f3bc 8c5f 3e3a 55a3 0c3d 6c2c 363c
00000070: 952b 373c 888c da3c 4a6d 473d 00f9 623c
00000080: dbff 37bc 7b4f 513a ee38 393c e3c7 013c
00000090: b740 d13c ab1f 0ebd 531c 1f3d 988e 703c
000000a0: a984 443c 9d03 17bb cb75 1dbc 06ea 09bb
000000b0: 1cef c9b7 4059 883c ba9b 523c 11e6 873c
000000c0: d7eb debc 281b cf3a 4b8a 943c 8039 3cbd
000000d0: c23d 8e3c 3dc1 81bc c604 0abd b5ce 8b38
000000e0: bc44 b7bc 85d9 0a3c f261 b53c 9c99 543c
000000f0: 0127 663d bded 513b efef 1dbb 2242 773c
-0.012945425 -0.039808422 0.0030003022 -0.027804296 0.028573968 -0.0104850475 0.016248493 -0.011753529
0.018566262 0.009372508 0.017569408 0.050876327 -0.039233036 -0.002614159 -0.0056115338 -0.028002864
0.021498252 -0.009205011 0.01855457 -0.04025516 -0.0021322921 -0.017915359 0.009663601 0.03811861
-0.029728228 0.00072621624 0.034335453 0.011118989 0.011179824 0.026678339 0.04868821 0.013853312
-0.011230434 0.0007984561 0.011305077 0.007921192 0.025543554 -0.03469817 0.03884537 0.0146824345
0.011994519 -0.0023042925 -0.009610604 -0.002104403 -2.4072411e-05 0.01664412 0.012854511 0.016589196
-0.027212067 0.001580094 0.01813235 -0.045953274 0.017363433 -0.015839214 -0.03369596 6.666539e-05
-0.022371642 0.008474712 0.02214143 0.012976076 0.05618954 0.0032032572 -0.002409931 0.015091451

onnx__MatMul_139 f4 [8, 16]
00000000: 33aa 623b fb14 dcbc 5d39 bbbc 4af6 9d3b
00000010: e7fd a23b 5eee d4bc df61 c23c b277 cabb
00000020: 5823 cb3c ca1d 00bd 4788 393a 540d ea3b
00000030: d294 cdbc 662e 10b6 b152 4bbd 42ca ad3c
00000040: 56bd e23b 3edb d33c 4627 c03c 9a34 cfba
00000050: 6c65 f5bb 2c6e 52bc 50de 933c 9b09 293d
00000060: f00d 27bc 1e37 31bd b8f0 ab3c 173f af3c
00000070: c337 e5bb c25d 6d3d edd2 173d 4231 1f3c
00000080: 4a66 283c b63f 9a3c e3c1 efbc 3013 d83c
00000090: e3f5 56ba 691d f5bc 77b1 8dbc de27 81ba
000000a0: cc94 0fbc e829 85bb 0a21 76bc bffc 483c
000000b0: 44f7 da3c 4379 c0bb 112b 483c fe3a b83c
000000c0: c9a4 c4bb 9695 3d3c 6d99 cc3c 662a 8c3c
000000d0: 2746 813c 30fe b1ba 1bce 623c f784 cc3c
000000e0: 41c9 113d dd24 ae3a 0d81 a03c dfaa 363c
000000f0: 670f a33c c6b2 17bd 7dcc 593b 6ec1 ec3b
00000100: 297b cb3c 9f99 143c 8984 1a3c 5ee7 8f3b
00000110: d21c 193c d327 e2bb 8c1e 3c3c 9cbb 943c
00000120: b446 2b3c 7198 55bd 7b6d 133c fa9d 41bc
00000130: 8640 913c b563 1b3c 85ef a93c e632 c13b
00000140: f54c 953c 361f c1bb 31c6 ef3b 7aa7 a03c
00000150: 0312 b7bc 724b 93bc 1bcc 08bd eaa9 33bb
00000160: db49 94bc 96e9 11bd 9d7c 803c 9e7e cbbc
00000170: b352 04bc dc56 36bd 8a7f cc3a e7e9 09bd
00000180: 22d4 f2ba 31da 47bc b273 90bc e125 d53b
00000190: 33c6 853c cdaf 0fbc 0d50 563c 88e2 5539
000001a0: df60 d13b cbcb 453c f9ff 7abc 19f9 13bd
000001b0: da4d 31ba 4274 f7bc abb9 dd3c 9146 0c3c
000001c0: 90f5 e43c 039d 353a 1e4e 673c 50a0 643c
000001d0: 9fd4 4b3c 9241 ad3c 4ab6 773c 682a 11bd
000001e0: 54f2 043c 4775 40bc e63d 3dbb 9b63 0e38
000001f0: 5fd8 583c ca13 21bc fb1d 9e3c b970 043c
0.003458631 -0.026865473 -0.022854501 0.0048206197 0.004974115 -0.025992569 0.02372831 -0.0061788196
0.024797127 -0.03127841 0.0007077497 0.007142702 -0.025095377 -2.148468e-06 -0.049639408 0.021214608
0.0069195433 0.025861379 0.023456227 -0.0015808523 -0.007488897 -0.01284365 0.018050343 0.041268926
-0.010196194 -0.043265454 0.020988807 0.021392388 -0.0069951727 0.057950743 0.03706639 0.009716334
0.010278294 0.018829208 -0.029267257 0.026376337 -0.0008200092 -0.02992125 -0.017296536 -0.00098538
-0.008763503 -0.0040638335 -0.015022526 0.012267291 0.026729234 -0.0058738305 0.012217299 0.022489067
-0.0060010892 0.011571309 0.024975503 0.01711006 0.015780522 -0.0013579782 0.013843085 0.024965746
0.03559232 0.0013286133 0.019592786 0.011149137 0.019904805 -0.037035726 0.0033233457 0.007225207
0.024839 0.009069829 0.009431013 0.004391595 0.00934525 -0.00690172 0.011481892 0.018155865
0.010453869 -0.052147333 0.00899827 -0.01181745 0.017730962 0.009484221 0.020744095 0.00589596
0.018225173 -0.005893613 0.0073173274 0.019611109 -0.022347456 -0.017980311 -0.033397775 -0.002741451
-0.018101623 -0.035623156 0.01568442 -0.02484065 -0.008076358 -0.04451643 0.0015601974 -0.033670332
-0.0018526355 -0.012198017 -0.017633293 0.0065047597 0.01632986 -0.0087699415 0.013080609 0.00020397652
0.0063897218 0.012072514 -0.015319818 -0.03612623 -0.0006763615 -0.030206803 0.027066072 0.008561746
0.027949125 0.00069279986 0.014117746 0.013954237 0.01244083 0.02114943 0.015119145 -0.035440832
0.008114416 -0.011746711 -0.0028876006 3.3948203e-05 0.013235181 -0.009831378 0.019301405 0.008083516

onnx__MatMul_140 f4 [16, 8]
00000000: 643c d4bb 65dc fe3c 4047 b5bc 4d3e c43b
00000010: b265 f83b 05b7 16bc 0089 12bd 947c 33bc
00000020: 4f4e dcbb 3e67 9a3c 2a38 923c f223 f5ba
00000030: 2031 c63c ed81 b7bc eb2a b43c 9623 1b3c
00000040: da47 28bd 6177 5f3b f744 90bc 8c1e 113b
00000050: e860 04bd ac9f 2fbc 8342 e7bc 28ed 8f3c
00000060: e27c 3bbc 62ab f6bc 4c9b 1a3d d720 c8bb
00000070: 1b80 a23c 4ab9 a73c 0d9f 183d 4c50 65bb
00000080: e475 f63c eb97 b13b 6f03 01bc 1ae2 f9bc
00000090: d338 6ebc 82ef 88bc 855c 993c 8234 b1b9
000000a0: eb82 203c 2f02 2f3d 1427 54bc ecd3 05bb
000000b0: 2285 643d c1fd 09bc cdc7 803c bd5d bbbc
000000c0: 3066 0fbc 9749 9fbc 3bab 89bb c6a1 abbc
000000d0: cd14 45bc 3da7 ecbb 0e0d 81bc 6a04 0a3d
000000e0: e68d 763a 24bd 16ba eeae c7bc 2160 5b3c
000000f0: e928 80bc 3113 00bc b3e8 5039 16e3 46bc
00000100: 3fd0 8c3c d0b8 edbc 9c60 b93c d483 22bc
00000110: e8b2 82bd fcc7 be3b 593a ac3c b3f1 0e3c
00000120: ab06 aebc 1afb 30bd 0bef 123b eb36 813c
00000130: cce5 d3ba a941 e2bb db23 6fbc 5497 c0bc
00000140: 8ec1 863c a918 823c e76e bf3b 2535 55bb
00000150: 2de9 aebc 8154 9d3a ac37 98bb 3422 253d
00000160: eaec 3abd b005 22bb 9cbc 87bc ee58 c53c
00000170: b577 a9bc d3ab 5ebb 43a5 aabc 0150 01bc
00000180: 122c 9e3c adc0 81bb 75e5 ee3c 1e5b b63b
00000190: 660c d93c 2bad 0c3d c55c 35bd 573d a2bc
000001a0: 158d 6c3c 52fe 59bc cfaf 39bb ccf5 aabc
000001b0: 0002 273b 8b12 b23c bd48 bebc 8d62 8ebb
000001c0: 1998 113c 13b4 a2bc 3b45 2c3c 408a 05bd
000001d0: dfe1 5ebc 5a5b 47bd 7304 1dbd fab5 f6bb
000001e0: b097 803c 08f4 84bc 9a4d d23c 87e8 97ba
000001f0: deff e1bb 3203 1cbc b2cc 393c c5de 1fbc
-0.0064769257 0.031110952 -0.022128701 0.005988872 0.0075804824 -0.009198909 -0.035775185 -0.010954995
-0.0067232023 0.018848058 0.017849047 -0.0018702729 0.024193347 -0.02240082 0.021993121 0.009468934
-0.041084148 0.0034098255 -0.01761101 0.0022143451 -0.03231898 -0.010719221 -0.028229957 0.01756914
-0.011443349 -0.030111019 0.03774576 -0.0061074304 0.019836476 0.020474095 0.037261058 -0.0034990488
0.030085512 0.0054197214 -0.007874354 -0.030503321 -0.014539915 -0.016715769 0.018720875 -0.00033799192
0.009796838 0.04272669 -0.01294877 -0.0020420505 0.055791028 -0.008422316 0.015720272 -0.022871846
-0.008752391 -0.01944427 -0.0042013205 -0.020951163 -0.012028885 -0.007222085 -0.015753295 0.033695616
0.00094053 -0.000575023 -0.024375405 0.013389618 -0.015644507 -0.007817076 0.00019923113 -0.012139102
0.017189143 -0.02901879 0.022629075 -0.009919126 -0.0638178 0.00582218 0.021023916 0.008724618
-0.021243414 -0.04320822 0.0022420313 0.015773257 -0.0016166507 -0.0069048 -0.014595951 -0.023509659
0.016449716 0.0158809 0.005842078 -0.0032532897 -0.021351421 0.0012003334 -0.0046453085 0.04031582
-0.045636095 -0.0024722628 -0.016569428 0.024090257 -0.020686964 -0.0033976927 -0.020830756 -0.00789261
0.019308124 -0.0039597363 0.029162148 0.0055650612 0.02649517 0.034344833 -0.044277925 -0.01980464
0.014437933 -0.013305264 -0.002833355 -0.020869158 0.002548337 0.021737358 -0.023228044 -0.0043452443
0.008886361 -0.019861257 0.010514553 -0.03260255 -0.013603657 -0.048671104 -0.03833432 -0.0075290175
0.01569733 -0.016229644 0.025671769 -0.0011589684 -0.006896957 -0.009522246 0.011340307 -0.009757702

onnx__MatMul_141 f4 [8, 1]
00000000: 4000 673a d11c e0bc e323 17bc 55c7 ae3c
00000010: 54fb c5bb 0930 873c b566 8e3b faec d03c
0.0008811988 -0.02735749 -0.009224865 0.021335283 -0.0060419235 0.016502397 0.0043457397 0.025503624

classifier_blocks_0_linear1_bias f4 [1, 256, 16]
00000000: 0000 0000 0000 0000 0000 0000 0000 0000
00000010: 0000 0000 0000 0000 0000 0000 0000 0000
00000020: 0000 0000 0000 0000 0000 0000 0000 0000
00000030: 0000 0000 0000 0000 0000 0000 0000 0000
00000040: 0000 0000 0000 0000 0000 0000 0000 0000
00000050: 0000 0000 0000 0000 0000 0000 0000 0000
00000060: 0000 0000 0000 0000 0000 0000 0000 0000
00000070: 0000 0000 0000 0000 0000 0000 0000 0000
00000080: 0000 0000 0000 0000 0000 0000 0000 0000
00000090: 0000 0000 0000 0000 0000 0000 0000 0000
000000a0: 0000 0000 0000 0000 0000 0000 0000 0000
000000b0: 0000 0000 0000 0000 0000 0000 0000 0000
000000c0: 0000 0000 0000 0000 0000 0000 0000 0000
000000d0: 0000 0000 0000 0000 0000 0000 0000 0000
000000e0: 0000 0000 0000 0000 0000 0000 0000 0000
000000f0: 0000 0000 0000 0000 0000 0000 0000 0000
00000100: 0000 0000 0000 0000 0000 0000 0000 0000
00000110: 0000 0000 0000 0000 0000 0000 0000 0000
00000120: 0000 0000 0000 0000 0000 0000 0000 0000
00000130: 0000 0000 0000 0000 0000 0000 0000 0000
00000140: 0000 0000 0000 0000 0000 0000 0000 0000
00000150: 0000 0000 0000 0000 0000 0000 0000 0000
00000160: 0000 0000 0000 0000 0000 0000 0000 0000
00000170: 0000 0000 0000 0000 0000 0000 0000 0000
00000180: 0000 0000 0000 0000 0000 0000 0000 0000
00000190: 0000 0000 0000 0000 0000 0000 0000 0000
000001a0: 0000 0000 0000 0000 0000 0000 0000 0000
000001b0: 0000 0000 0000 0000 0000 0000 0000 0000
000001c0: 0000 0000 0000 0000 0000 0000 0000 0000
000001d0: 0000 0000 0000 0000 0000 0000 0000 0000
000001e0: 0000 0000 0000 0000 0000 0000 0000 0000
000001f0: 0000 0000 0000 0000 0000 0000 0000 0000
00000200: 0000 0000 0000 0000 0000 0000 0000 0000
00000210: 0000 0000 0000 0000 0000 0000 0000 0000
00000220: 0000 0000 0000 0000 0000 0000 0000 0000
00000230: 0000 0000 0000 0000 0000 0000 0000 0000
00000240: 0000 0000 0000 0000 0000 0000 0000 0000
00000250: 0000 0000 0000 0000 0000 0000 0000 0000
00000260: 0000 0000 0000 0000 0000 0000 0000 0000
00000270: 0000 0000 0000 0000 0000 0000 0000 0000
00000280: 0000 0000 0000 0000 0000 0000 0000 0000
00000290: 0000 0000 0000 0000 0000 0000 0000 0000
000002a0: 0000 0000 0000 0000 0000 0000 0000 0000
000002b0: 0000 0000 0000 0000 0000 0000 0000 0000
000002c0: 0000 0000 0000 0000 0000 0000 0000 0000
000002d0: 0000 0000 0000 0000 0000 0000 0000 0000
000002e0: 0000 0000 0000 0000 0000 0000 0000 0000
000002f0: 0000 0000 0000 0000 0000 0000 0000 0000
00000300: 0000 0000 0000 0000 0000 0000 0000 0000
00000310: 0000 0000 0000 0000 0000 0000 0000 0000
00000320: 0000 0000 0000 0000 0000 0000 0000 0000
00000330: 0000 0000 0000 0000 0000 0000 0000 0000
00000340: 0000 0000 0000 0000 0000 0000 0000 0000
00000350: 0000 0000 0000 0000 0000 0000 0000 0000
00000360: 0000 0000 0000 0000 0000 0000 0000 0000
00000370: 0000 0000 0000 0000 0000 0000 0000 0000
00000380: 0000 0000 0000 0000 0000 0000 0000 0000
00000390: 0000 0000 0000 0000 0000 0000 0000 0000
000003a0: 0000 0000 0000 0000 0000 0000 0000 0000
000003b0: 0000 0000 0000 0000 0000 0000 0000 0000
000003c0: 0000 0000 0000 0000 0000 0000 0000 0000
000003d0: 0000 0000 0000 0000 0000 0000 0000 0000
000003e0: 0000 0000 0000 0000 0000 0000 0000 0000
000003f0: 0000 0000 0000 0000 0000 0000 0000 0000
0.0 0.0 0.0 0.0 0.0 0.0 0.0 0.0
0.0 0.0 0.0 0.0 0.0 0.0 0.0 0.0
0.0 0.0 0.0 0.0 0.0 0.0 0.0 0.0
0.0 0.0 0.0 0.0 0.0 0.0 0.0 0.0
0.0 0.0 0.0 0.0 0.0 0.0 0.0 0.0
0.0 0.0 0.0 0.0 0.0 0.0 0.0 0.0
0.0 0.0 0.0 0.0 0.0 0.0 0.0 0.0
0.0 0.0 0.0 0.0 0.0 0.0 0.0 0.0
0.0 0.0 0.0 0.0 0.0 0.0 0.0 0.0
0.0 0.0 0.0 0.0 0.0 0.0 0.0 0.0
0.0 0.0 0.0 0.0 0.0 0.0 0.0 0.0
0.0 0.0 0.0 0.0 0.0 0.0 0.0 0.0
0.0 0.0 0.0 0.0 0.0 0.0 0.0 0.0
0.0 0.0 0.0 0.0 0.0 0.0 0.0 0.0
0.0 0.0 0.0 0.0 0.0 0.0 0.0 0.0
0.0 0.0 0.0 0.0 0.0 0.0 0.0 0.0
0.0 0.0 0.0 0.0 0.0 0.0 0.0 0.0
0.0 0.0 0.0 0.0 0.0 0.0 0.0 0.0
0.0 0.0 0.0 0.0 0.0 0.0 0.0 0.0
0.0 0.0 0.0 0.0 0.0 0.0 0.0 0.0
0.0 0.0 0.0 0.0 0.0 0.0 0.0 0.0
0.0 0.0 0.0 0.0 0.0 0.0 0.0 0.0
0.0 0.0 0.0 0.0 0.0 0.0 0.0 0.0
0.0 0.0 0.0 0.0 0.0 0.0 0.0 0.0
0.0 0.0 0.0 0.0 0.0 0.0 0.0 0.0
0.0 0.0 0.0 0.0 0.0 0.0 0.0 0.0
0.0 0.0 0.0 0.0 0.0 0.0 0.0 0.0
0.0 0.0 0.0 0.0 0.0 0.0 0.0 0.0
0.0 0.0 0.0 0.0 0.0 0.0 0.0 0.0
0.0 0.0 0.0 0.0 0.0 0.0 0.0 0.0
0.0 0.0 0.0 0.0 0.0 0.0 0.0 0.0
0.0 0.0 0.0 0.0 0.0 0.0 0.0 0.0

node_classifier_blocks_0_linear2_Add_bias f4 [1, 256, 8]
00000000: 0000 0000 0000 0000 0000 0000 0000 0000
00000010: 0000 0000 0000 0000 0000 0000 0000 0000
00000020: 0000 0000 0000 0000 0000 0000 0000 0000
00000030: 0000 0000 0000 0000 0000 0000 0000 0000
00000040: 0000 0000 0000 0000 0000 0000 0000 0000
00000050: 0000 0000 0000 0000 0000 0000 0000 0000
00000060: 0000 0000 0000 0000 0000 0000 0000 0000
00000070: 0000 0000 0000 0000 0000 0000 0000 0000
00000080: 0000 0000 0000 0000 0000 0000 0000 0000
00000090: 0000 0000 0000 0000 0000 0000 0000 0000
000000a0: 0000 0000 0000 0000 0000 0000 0000 0000
000000b0: 0000 0000 0000 0000 0000 0000 0000 0000
000000c0: 0000 0000 0000 0000 0000 0000 0000 0000
000000d0: 0000 0000 0000 0000 0000 0000 0000 0000
000000e0: 0000 0000 0000 0000 0000 0000 0000 0000
000000f0: 0000 0000 0000 0000 0000 0000 0000 0000
00000100: 0000 0000 0000 0000 0000 0000 0000 0000
00000110: 0000 0000 0000 0000 0000 0000 0000 0000
00000120: 0000 0000 0000 0000 0000 0000 0000 0000
00000130: 0000 0000 0000 0000 0000 0000 0000 0000
00000140: 0000 0000 0000 0000 0000 0000 0000 0000
00000150: 0000 0000 0000 0000 0000 0000 0000 0000
00000160: 0000 0000 0000 0000 0000 0000 0000 0000
00000170: 0000 0000 0000 0000 0000 0000 0000 0000
00000180: 0000 0000 0000 0000 0000 0000 0000 0000
00000190: 0000 0000 0000 0000 0000 0000 0000 0000
000001a0: 0000 0000 0000 0000 0000 0000 0000 0000
000001b0: 0000 0000 0000 0000 0000 0000 0000 0000
000001c0: 0000 0000 0000 0000 0000 0000 0000 0000
000001d0: 0000 0000 0000 0000 0000 0000 0000 0000
000001e0: 0000 0000 0000 0000 0000 0000 0000 0000
000001f0: 0000 0000 0000 0000 0000 0000 0000 0000
00000200: 0000 0000 0000 0000 0000 0000 0000 0000
00000210: 0000 0000 0000 0000 0000 0000 0000 0000
00000220: 0000 0000 0000 0000 0000 0000 0000 0000
00000230: 0000 0000 0000 0000 0000 0000 0000 0000
00000240: 0000 0000 0000 0000 0000 0000 0000 0000
00000250: 0000 0000 0000 0000 0000 0000 0000 0000
00000260: 0000 0000 0000 0000 0000 0000 0000 0000
00000270: 0000 0000 0000 0000 0000 0000 0000 0000
00000280: 0000 0000 0000 0000 0000 0000 0000 0000
00000290: 0000 0000 0000 0000 0000 0000 0000 0000
000002a0: 0000 0000 0000 0000 0000 0000 0000 0000
000002b0: 0000 0000 0000 0000 0000 0000 0000 0000
000002c0: 0000 0000 0000 0000 0000 0000 0000 0000
000002d0: 0000 0000 0000 0000 0000 0000 0000 0000
000002e0: 0000 0000 0000 0000 0000 0000 0000 0000
000002f0: 0000 0000 0000 0000 0000 0000 0000 0000
00000300: 0000 0000 0000 0000 0000 0000 0000 0000
00000310: 0000 0000 0000 0000 0000 0000 0000 0000
00000320: 0000 0000 0000 0000 0000 0000 0000 0000
00000330: 0000 0000 0000 0000 0000 0000 0000 0000
00000340: 0000 0000 0000 0000 0000 0000 0000 0000
00000350: 0000 0000 0000 0000 0000 0000 0000 0000
00000360: 0000 0000 0000 0000 0000 0000 0000 0000
00000370: 0000 0000 0000 0000 0000 0000 0000 0000
00000380: 0000 0000 0000 0000 0000 0000 0000 0000
00000390: 0000 0000 0000 0000 0000 0000 0000 0000
000003a0: 0000 0000 0000 0000 0000 0000 0000 0000
000003b0: 0000 0000 0000 0000 0000 0000 0000 0000
000003c0: 0000 0000 0000 0000 0000 0000 0000 0000
000003d0: 0000 0000 0000 0000 0000 0000 0000 0000
000003e0: 0000 0000 0000 0000 0000 0000 0000 0000
000003f0: 0000 0000 0000 0000 0000 0000 0000 0000
0.0 0.0 0.0 0.0 0.0 0.0 0.0 0.0
0.0 0.0 0.0 0.0 0.0 0.0 0.0 0.0
0.0 0.0 0.0 0.0 0.0 0.0 0.0 0.0
0.0 0.0 0.0 0.0 0.0 0.0 0.0 0.0
0.0 0.0 0.0 0.0 0.0 0.0 0.0 0.0
0.0 0.0 0.0 0.0 0.0 0.0 0.0 0.0
0.0 0.0 0.0 0.0 0.0 0.0 0.0 0.0
0.0 0.0 0.0 0.0 0.0 0.0 0.0 0.0
0.0 0.0 0.0 0.0 0.0 0.0 0.0 0.0
0.0 0.0 0.0 0.0 0.0 0.0 0.0 0.0
0.0 0.0 0.0 0.0 0.0 0.0 0.0 0.0
0.0 0.0 0.0 0.0 0.0 0.0 0.0 0.0
0.0 0.0 0.0 0.0 0.0 0.0 0.0 0.0
0.0 0.0 0.0 0.0 0.0 0.0 0.0 0.0
0.0 0.0 0.0 0.0 0.0 0.0 0.0 0.0
0.0 0.0 0.0 0.0 0.0 0.0 0.0 0.0
0.0 0.0 0.0 0.0 0.0 0.0 0.0 0.0
0.0 0.0 0.0 0.0 0.0 0.0 0.0 0.0
0.0 0.0 0.0 0.0 0.0 0.0 0.0 0.0
0.0 0.0 0.0 0.0 0.0 0.0 0.0 0.0
0.0 0.0 0.0 0.0 0.0 0.0 0.0 0.0
0.0 0.0 0.0 0.0 0.0 0.0 0.0 0.0
0.0 0.0 0.0 0.0 0.0 0.0 0.0 0.0
0.0 0.0 0.0 0.0 0.0 0.0 0.0 0.0
0.0 0.0 0.0 0.0 0.0 0.0 0.0 0.0
0.0 0.0 0.0 0.0 0.0 0.0 0.0 0.0
0.0 0.0 0.0 0.0 0.0 0.0 0.0 0.0
0.0 0.0 0.0 0.0 0.0 0.0 0.0 0.0
0.0 0.0 0.0 0.0 0.0 0.0 0.0 0.0
0.0 0.0 0.0 0.0 0.0 0.0 0.0 0.0
0.0 0.0 0.0 0.0 0.0 0.0 0.0 0.0
0.0 0.0 0.0 0.0 0.0 0.0 0.0 0.0

node_classifier_blocks_0_self_attn_proj_Add_bias f4 [1, 256, 8]
00000000: 0000 0000 0000 0000 0000 0000 0000 0000
00000010: 0000 0000 0000 0000 0000 0000 0000 0000
00000020: 0000 0000 0000 0000 0000 0000 0000 0000
00000030: 0000 0000 0000 0000 0000 0000 0000 0000
00000040: 0000 0000 0000 0000 0000 0000 0000 0000
00000050: 0000 0000 0000 0000 0000 0000 0000 0000
00000060: 0000 0000 0000 0000 0000 0000 0000 0000
00000070: 0000 0000 0000 0000 0000 0000 0000 0000
00000080: 0000 0000 0000 0000 0000 0000 0000 0000
00000090: 0000 0000 0000 0000 0000 0000 0000 0000
000000a0: 0000 0000 0000 0000 0000 0000 0000 0000
000000b0: 0000 0000 0000 0000 0000 0000 0000 0000
000000c0: 0000 0000 0000 0000 0000 0000 0000 0000
000000d0: 0000 0000 0000 0000 0000 0000 0000 0000
000000e0: 0000 0000 0000 0000 0000 0000 0000 0000
000000f0: 0000 0000 0000 0000 0000 0000 0000 0000
00000100: 0000 0000 0000 0000 0000 0000 0000 0000
00000110: 0000 0000 0000 0000 0000 0000 0000 0000
00000120: 0000 0000 0000 0000 0000 0000 0000 0000
00000130: 0000 0000 0000 0000 0000 0000 0000 0000
00000140: 0000 0000 0000 0000 0000 0000 0000 0000
00000150: 0000 0000 0000 0000 0000 0000 0000 0000
00000160: 0000 0000 0000 0000 0000 0000 0000 0000
00000170: 0000 0000 0000 0000 0000 0000 0000 0000
00000180: 0000 0000 0000 0000 0000 0000 0000 0000
00000190: 0000 0000 0000 0000 0000 0000 0000 0000
000001a0: 0000 0000 0000 0000 0000 0000 0000 0000
000001b0: 0000 0000 0000 0000 0000 0000 0000 0000
000001c0: 0000 0000 0000 0000 0000 0000 0000 0000
000001d0: 0000 0000 0000 0000 0000 0000 0000 0000
000001e0: 0000 0000 0000 0000 0000 0000 0000 0000
000001f0: 0000 0000 0000 0000 0000 0000 0000 0000
00000200: 0000 0000 0000 0000 0000 0000 0000 0000
00000210: 0000 0000 0000 0000 0000 0000 0000 0000
00000220: 0000 0000 0000 0000 0000 0000 0000 0000
00000230: 0000 0000 0000 0000 0000 0000 0000 0000
00000240: 0000 0000 0000 0000 0000 0000 0000 0000
00000250: 0000 0000 0000 0000 0000 0000 0000 0000
00000260: 0000 0000 0000 0000 0000 0000 0000 0000
00000270: 0000 0000 0000 0000 0000 0000 0000 0000
00000280: 0000 0000 0000 0000 0000 0000 0000 0000
00000290: 0000 0000 0000 0000 0000 0000 0000 0000
000002a0: 0000 0000 0000 0000 0000 0000 0000 0000
000002b0: 0000 0000 0000 0000 0000 0000 0000 0000
000002c0: 0000 0000 0000 0000 0000 0000 0000 0000
000002d0: 0000 0000 0000 0000 0000 0000 0000 0000
000002e0: 0000 0000 0000 0000 0000 0000 0000 0000
000002f0: 0000 0000 0000 0000 0000 0000 0000 0000
00000300: 0000 0000 0000 0000 0000 0000 0000 0000
00000310: 0000 0000 0000 0000 0000 0000 0000 0000
00000320: 0000 0000 0000 0000 0000 0000 0000 0000
00000330: 0000 0000 0000 0000 0000 0000 0000 0000
00000340: 0000 0000 0000 0000 0000 0000 0000 0000
00000350: 0000 0000 0000 0000 0000 0000 0000 0000
00000360: 0000 0000 0000 0000 0000 0000 0000 0000
00000370: 0000 0000 0000 0000 0000 0000 0000 0000
00000380: 0000 0000 0000 0000 0000 0000 0000 0000
00000390: 0000 0000 0000 0000 0000 0000 0000 0000
000003a0: 0000 0000 0000 0000 0000 0000 0000 0000
000003b0: 0000 0000 0000 0000 0000 0000 0000 0000
000003c0: 0000 0000 0000 0000 0000 0000 0000 0000
000003d0: 0000 0000 0000 0000 0000 0000 0000 0000
000003e0: 0000 0000 0000 0000 0000 0000 0000 0000
000003f0: 0000 0000 0000 0000 0000 0000 0000 0000
0.0 0.0 0.0 0.0 0.0 0.0 0.0 0.0
0.0 0.0 0.0 0.0 0.0 0.0 0.0 0.0
0.0 0.0 0.0 0.0 0.0 0.0 0.0 0.0
0.0 0.0 0.0 0.0 0.0 0.0 0.0 0.0
0.0 0.0 0.0 0.0 0.0 0.0 0.0 0.0
0.0 0.0 0.0 0.0 0.0 0.0 0.0 0.0
0.0 0.0 0.0 0.0 0.0 0.0 0.0 0.0
0.0 0.0 0.0 0.0 0.0 0.0 0.0 0.0
0.0 0.0 0.0 0.0 0.0 0.0 0.0 0.0
0.0 0.0 0.0 0.0 0.0 0.0 0.0 0.0
0.0 0.0 0.0 0.0 0.0 0.0 0.0 0.0
0.0 0.0 0.0 0.0 0.0 0.0 0.0 0.0
0.0 0.0 0.0 0.0 0.0 0.0 0.0 0.0
0.0 0.0 0.0 0.0 0.0 0.0 0.0 0.0
0.0 0.0 0.0 0.0 0.0 0.0 0.0 0.0
0.0 0.0 0.0 0.0 0.0 0.0 0.0 0.0
0.0 0.0 0.0 0.0 0.0 0.0 0.0 0.0
0.0 0.0 0.0 0.0 0.0 0.0 0.0 0.0
0.0 0.0 0.0 0.0 0.0 0.0 0.0 0.0
0.0 0.0 0.0 0.0 0.0 0.0 0.0 0.0
0.0 0.0 0.0 0.0 0.0 0.0 0.0 0.0
0.0 0.0 0.0 0.0 0.0 0.0 0.0 0.0
0.0 0.0 0.0 0.0 0.0 0.0 0.0 0.0
0.0 0.0 0.0 0.0 0.0 0.0 0.0 0.0
0.0 0.0 0.0 0.0 0.0 0.0 0.0 0.0
0.0 0.0 0.0 0.0 0.0 0.0 0.0 0.0
0.0 0.0 0.0 0.0 0.0 0.0 0.0 0.0
0.0 0.0 0.0 0.0 0.0 0.0 0.0 0.0
0.0 0.0 0.0 0.0 0.0 0.0 0.0 0.0
0.0 0.0 0.0 0.0 0.0 0.0 0.0 0.0
0.0 0.0 0.0 0.0 0.0 0.0 0.0 0.0
0.0 0.0 0.0 0.0 0.0 0.0 0.0 0.0

classifier_fc_bias f4 [1, 10]
00000000: 0000 0000 0000 0000 0000 0000 0000 0000
00000010: 0000 0000 0000 0000 0000 0000 0000 0000
00000020: 0000 0000 0000 0000
0.0 0.0 0.0 0.0 0.0 0.0 0.0 0.0
0.0 0.0
